__________________________________________________________________________________________________
Layer (type)                    Output Shape         Param #     Connected to                     
==================================================================================================
input_1 (InputLayer)            (None, 600)          0                                            
__________________________________________________________________________________________________
embedding_1 (Embedding)         (None, 600, 100)     3000200     input_1[0][0]                    
__________________________________________________________________________________________________
positional_encoding_1 (Position (None, 600, 100)     0           embedding_1[0][0]                
__________________________________________________________________________________________________
dense_1 (Dense)                 (None, 600, 100)     10100       positional_encoding_1[0][0]      
__________________________________________________________________________________________________
dense_2 (Dense)                 (None, 600, 100)     10100       positional_encoding_1[0][0]      
__________________________________________________________________________________________________
q_reshape_0 (Lambda)            (None, 600, 25)      0           dense_1[0][0]                    
__________________________________________________________________________________________________
k_reshape_0 (Lambda)            (None, 600, 25)      0           dense_2[0][0]                    
__________________________________________________________________________________________________
q_k_matmul_0 (Lambda)           (None, 600, 600)     0           q_reshape_0[0][0]                
                                                                 k_reshape_0[0][0]                
__________________________________________________________________________________________________
divide_0 (Lambda)               (None, 600, 600)     0           q_k_matmul_0[0][0]               
__________________________________________________________________________________________________
softmax_0 (Lambda)              (None, 600, 600)     0           divide_0[0][0]                   
__________________________________________________________________________________________________
dense_3 (Dense)                 (None, 600, 100)     10100       positional_encoding_1[0][0]      
__________________________________________________________________________________________________
dropout_1 (Dropout)             (None, 600, 600)     0           softmax_0[0][0]                  
__________________________________________________________________________________________________
v_reshape_0 (Lambda)            (None, 600, 25)      0           dense_3[0][0]                    
__________________________________________________________________________________________________
o_v_matmul_0 (Lambda)           (None, 600, 25)      0           dropout_1[0][0]                  
                                                                 v_reshape_0[0][0]                
__________________________________________________________________________________________________
o_reshape_0 (Lambda)            (None, 600, 100)     0           o_v_matmul_0[0][0]               
__________________________________________________________________________________________________
add_1 (Add)                     (None, 600, 100)     0           o_reshape_0[0][0]                
                                                                 positional_encoding_1[0][0]      
__________________________________________________________________________________________________
batch_normalization_1 (BatchNor (None, 600, 100)     400         add_1[0][0]                      
__________________________________________________________________________________________________
conv1d_1 (Conv1D)               (None, 600, 400)     40400       batch_normalization_1[0][0]      
__________________________________________________________________________________________________
conv1d_2 (Conv1D)               (None, 600, 100)     40100       conv1d_1[0][0]                   
__________________________________________________________________________________________________
add_2 (Add)                     (None, 600, 100)     0           batch_normalization_1[0][0]      
                                                                 conv1d_2[0][0]                   
__________________________________________________________________________________________________
batch_normalization_2 (BatchNor (None, 600, 100)     400         add_2[0][0]                      
__________________________________________________________________________________________________
global_max_pooling1d_1 (GlobalM (None, 100)          0           batch_normalization_2[0][0]      
__________________________________________________________________________________________________
dense_4 (Dense)                 (None, 11)           1111        global_max_pooling1d_1[0][0]     
==================================================================================================
Total params: 3,112,911
Trainable params: 3,112,511
Non-trainable params: 400
__________________________________________________________________________________________________
None
Epoch 1/3

    16/197449 [..............................] - ETA: 3:35:34 - loss: 4.4336 - acc: 0.0000e+00
…
